Machine Learning/Final Submission/model.tflite (tflite, 412208 bytes, 4 tensors)

embedding_20/embeddings f4 [1000, 100]
000000 0d aa 3c 3e d1 3f 46 bd a5 7a 16 3e 89 4c 84 3e
       0.18424244 -0.048400704 0.14695223 0.25839642
000010 4a 79 20 bd a0 64 bc 3e 47 04 21 bc 11 96 df bd
       -0.03917817 0.3679552 -0.00982768 -0.10917295
000020 d3 22 84 3d 8c a8 8f 3d b3 f5 38 be 40 26 63 3e
       0.06451955 0.0701457 -0.18062477 0.2218256
000030 40 3c b4 3e 60 02 04 be 9f ce 0f be f1 4f 28 3e
       0.35202217 -0.12891531 -0.14043663 0.16436745
000040 37 d3 28 bf 70 56 52 bd 86 50 f5 3c 3e 9f 37 be
       -0.6594729 -0.051351964 0.029945623 -0.1793184
000050 dc a6 91 3e 5d 8e e1 bd 42 82 2c be 06 6f c6 be
       0.28447616 -0.11013482 -0.16846564 -0.3875658
000060 c2 2d 08 be c9 9f ba be 8f 77 ac 3d ec 7e 8d be
       -0.13298705 -0.3645003 0.084212415 -0.27635896
000070 64 f8 b1 bd c2 28 a2 3b 18 1b 1e 3d aa 89 5a 3e
       -0.08689955 0.0049487064 0.038600057 0.21341577
000080 62 b6 24 be 2e 99 c6 bb 6d 7a 23 be bd 72 87 bd
       -0.16085199 -0.006060741 -0.1596467 -0.066136815
000090 ff a1 a4 3d e6 09 c8 bd 18 f3 03 be 20 aa 34 be
       0.08038711 -0.09767513 -0.12885702 -0.17643023
0000a0 4e 72 3e 3e 9c 67 b7 3c 6a 79 b9 be 92 09 c0 bc
       0.18598291 0.022388272 -0.36225444 -0.023442063
0000b0 12 36 de 3c 8d 45 8f 3d d6 35 e2 3e ff 36 b9 3e
       0.027125392 0.06995688 0.441817 0.3617477
0000c0 88 c4 d0 3e a1 0d 7e 3e 1b 4e f1 3d c9 7d b0 3e
       0.4077494 0.24809887 0.117824756 0.34470966
0000d0 6c 4d b9 bd 4d 13 29 be 57 eb 22 be 87 8c 3a be
       -0.0904797 -0.16511269 -0.15910088 -0.1821767
0000e0 63 ef ac 3d 66 5a 9a be c6 bd ed bd 87 4e 0c bd
       0.08444097 -0.30147094 -0.11608462 -0.034254577
0000f0 f1 7d 80 bd d4 7a 48 bd de f2 22 3e 83 9b 25 3d
       -0.062740214 -0.048945263 0.15912959 0.04043151
000100 5e ea 4d be 58 c2 73 bd 1f 1f 83 bc f1 d9 e0 3d
       -0.20108935 -0.059511513 -0.01600605 0.10979069
000110 24 7b 34 be 35 cb 67 3e ea 51 19 3e ba 44 37 be
       -0.176251 0.22636111 0.14972654 -0.17897311
000120 04 dd ec 3c dd 1a 70 be dc 68 94 bc 16 8c 7e 3e
       0.028913982 -0.23447748 -0.018116407 0.24858126
000130 da 69 5c bb 42 0a 15 be 0a 48 99 3e b7 6a 86 be
       -0.0033632428 -0.14554694 0.29937774 -0.26253292
000140 12 fa 41 3c 7f 3e 08 be 8f 22 55 3e 7f 44 aa 3e
       0.011839407 -0.1330509 0.20813964 0.33255383
000150 4a 6e e8 3d 26 70 48 be 1e ba bd bd 2f 80 1a bd
       0.11349161 -0.19574031 -0.09264015 -0.0377199
000160 c0 96 82 be 22 fa 0d be 93 4e 54 bd 54 70 b3 3d
       -0.25505638 -0.1386495 -0.051832747 0.08761659
000170 56 bb 90 3e 17 b5 fe bc 21 29 1c be 98 00 8d 3d
       0.28267926 -0.03109221 -0.15250064 0.06884879
000180 7e e2 43 3e e7 1a b2 3c 40 87 0c 3e 54 26 2c be
       0.19129369 0.021741344 0.13723469 -0.16811496
000190 31 01 c9 3d a5 ce 2f be 2a 9f b1 3e 61 84 b9 3d
       0.0981468 -0.17168672 0.34691745 0.090584524
0001a0 aa 4a a0 3d 82 b4 a4 3e 91 84 22 be 55 fa b4 bb
       0.07826741 0.32168967 -0.15870883 -0.005523006
0001b0 d1 5d 14 be e6 28 8c 3e ab 5f 06 bd 90 2b 19 3e
       -0.14488913 0.27374953 -0.03280608 0.14958024
0001c0 eb 99 8c 3e e4 6c b6 bb ab 7d 59 bc 62 1e cf 3e
       0.2746118 -0.00556718 -0.0132745905 0.40452868
0001d0 e0 51 44 bf a9 71 2f be a3 05 85 3e c4 6d 98 bc
       -0.7668743 -0.17133202 0.25980863 -0.018607028
0001e0 d9 9a 1a 3e 27 e3 81 3d 53 ab 91 bd b4 42 90 be
       0.15098132 0.06342154 -0.071127556 -0.2817589
0001f0 2b 42 c3 be 20 42 61 be 28 e4 72 3e 18 d4 41 be
       -0.3813642 -0.21997881 0.23719847 -0.18928564
000200 b2 b6 83 be 96 d4 3a be 95 b3 4a be 56 ef 07 3e
       -0.25725323 -0.18245158 -0.19795068 0.13274893
000210 7d 22 c0 be 7c 01 64 be 79 cc dc 3b 4a 05 a6 3d
       -0.37526312 -0.22266191 0.006738242 0.081064776
000220 f2 aa ae bd 3f 6e da 3d 93 35 ad be 0f 3d 0e bc
       -0.08528699 0.10665559 -0.33829936 -0.00868155
000230 55 c5 99 3c c9 76 4b be 0f 61 99 be 61 17 25 3e
       0.018770853 -0.19869532 -0.29956862 0.161222
000240 35 35 27 be 9f 00 96 3e b9 0e d8 3e 7a 0d a4 3e
       -0.1632889 0.2929735 0.42198732 0.32041532
000250 3b 27 8b 3e a1 b2 d9 3e d6 95 e0 bd c4 3a 75 3e
       0.27178368 0.42519096 -0.10966079 0.23948199
000260 4c d9 44 3d af 04 92 bd cf 5c ab be 41 65 a5 bd
       0.048058793 -0.071297996 -0.33469245 -0.08075953
000270 bf 40 87 bd 05 9b 5b be b4 65 96 3c 80 a3 43 3e
       -0.06604146 -0.21445854 0.018359043 0.19105339
000280 bd 3b 9d be af 30 fc 3d 73 32 a7 3e 19 4f 5b 3e
       -0.3070964 0.12313973 0.32655677 0.21416892
000290 0c 4d 78 bd 50 15 ca 3d 43 d4 1a 3e 9d 86 9b bd
       -0.060620353 0.09867346 0.15120034 -0.07594035
0002a0 39 d1 bb be 35 f2 b3 3e 01 dd 81 3e 6a 8f 44 bc
       -0.36683062 0.35145727 0.25363925 -0.011997083
0002b0 9a 7e 46 3e 23 c4 54 bb 1a 89 1a be d9 7a 22 3e
       0.19384232 -0.003246554 -0.15091363 0.15867175
0002c0 73 ce 01 3e 34 cd 42 3d 24 ee 59 3e 4e 7b 55 be
       0.1267641 0.04755898 0.2128225 -0.20847818
0002d0 67 98 45 3e 05 40 21 bc 31 c4 95 3e f5 cd 30 3e
       0.19296418 -0.009841924 0.29251245 0.17266066
0002e0 da eb a2 bd 81 06 12 bd 09 5b 57 be da c7 93 be
       -0.07955141 -0.035650734 -0.21030821 -0.28863412
0002f0 f0 61 54 be 9d b8 0e 3d d1 98 c6 3d 79 45 71 3e
       -0.20740485 0.03484403 0.09697116 0.23561658
000300 95 f8 57 3e 02 99 14 3e ac c4 d3 bc 41 f2 5a 3e
       0.2109092 0.14511493 -0.025850616 0.21381475
000310 0c 3e 65 3c 5d fc 0f be ff 35 57 bd 87 da 6e 3b
       0.013991844 -0.14061113 -0.05254173 0.003644617
000320 f1 27 6e bd 35 55 93 be 79 ef b9 3e 09 c2 29 3d
       -0.05814356 -0.28775945 0.36315516 0.041444812
000330 11 29 1b 3e 74 a2 5f 3e 94 60 81 be eb 99 09 3e
       0.15152384 0.21839315 -0.25268996 0.13437621
000340 21 95 31 be 86 db 6a 3e 98 eb c3 3c 52 65 f5 3d
       -0.17342044 0.22935304 0.02391605 0.11982216
000350 e1 24 0e 3e 2f 34 ca 3d 60 98 f7 3c ec df e0 3e
       0.13881256 0.098732345 0.030224025 0.4392084
000360 6b 53 30 bf 77 d8 82 be 48 12 9e 3e 5f 90 bb 3d
       -0.68877286 -0.25555775 0.30873322 0.09158396
000370 53 26 ee 3d f4 c9 34 3e d7 c0 9e 3d 49 23 19 be
       0.116284035 0.17655164 0.07751625 -0.14954866
000380 88 f5 be be 3d e6 2a be 3f 64 a3 3e 9a c7 93 bc
       -0.372967 -0.16689391 0.3191242 -0.018039513
000390 02 ac 9b be fc 74 5d be 8e 9b 56 be 70 17 0e bb
       -0.3040467 -0.21626657 -0.20957777 -0.002168145
0003a0 2b 18 a7 be e0 4d 9d be 49 76 e4 3d 53 55 5d 3e
       -0.32635626 -0.30723476 0.111553736 0.2161458
0003b0 d4 76 be bd 73 ad 0a 3e 2c 8d c6 be 38 08 8f 3d
       -0.093000084 0.13542728 -0.3877958 0.069839895
0003c0 8e 53 7c bd ac d4 57 be 9b 67 15 be a1 85 4a 3e
       -0.06160312 -0.21077222 -0.14590304 0.19777538
0003d0 10 6a 58 be 11 ad 7f 3e 4c 4a a4 3e 2a 79 49 3e
       -0.2113421 0.24968363 0.32087934 0.19675127
0003e0 22 56 42 3e 48 dd ef 3e 99 f3 f8 bd 2a 94 1f 3e
       0.1897817 0.46848512 -0.121558376 0.15583864
0003f0 83 3a 24 3e 9c 26 a3 3d 79 71 cc be 62 e4 dc 3c
       0.16037945 0.079663485 -0.39930323 0.02696437

dense_38/bias f4 [24]
000000 7a 0e d0 3e e3 d5 93 be a2 ca 0f bd e8 47 f8 bd
       0.40636045 -0.2887412 -0.035105355 -0.1212309
000010 14 9b ab be bc 10 61 be 86 ff 8d be d8 65 34 be
       -0.33516753 -0.2197904 -0.2773401 -0.17616975
000020 f9 b0 af be 8b 46 a6 3e 1f 10 a6 be 4c 36 d8 bd
       -0.34314707 0.32475695 -0.32434174 -0.10557231
000030 80 84 49 be 79 b9 03 be 8d b4 b2 be 39 0f b2 be
       -0.19679451 -0.12863721 -0.34903374 -0.3477724
000040 c4 8a 42 be 16 e9 cf bd 0b a7 3c be 9a 5d 86 bd
       -0.18998247 -0.101518795 -0.18423097 -0.06560822
000050 3d 74 f0 bd cf 7c e9 bd 1a 62 98 be 25 c1 09 be
       -0.11740921 -0.114007585 -0.29762346 -0.13452585

sequential_19/dense_38/MatMul f4 [24, 100]
000000 ae 60 87 be 92 00 92 bf a1 02 93 3f d2 42 9b bd
       -0.26440948 -1.1406424 1.1485177 -0.07581104
000010 0e d8 de 3f a9 d2 6b 3e d6 0e 81 bf f6 ff 4a 3f
       1.7409685 0.23029579 -1.0082653 0.79296815
000020 ad 59 d4 bf 45 72 96 3f c8 80 b7 3e a5 65 6f be
       -1.6589867 1.1753622 0.3584044 -0.23378618
000030 6a 5f 4a 3e 5e 47 1c 3f 4c be 1d 3f 81 a5 8a 3f
       0.1976296 0.610464 0.61618495 1.0831758
000040 77 a7 52 bf ce cb 9b bf 68 b6 9b 3f 46 d4 f4 3e
       -0.8228678 -1.2171571 1.2165041 0.47818202
000050 90 59 3e 3d 23 2c 80 3f a5 63 e2 3e 36 a5 87 be
       0.046472132 1.001347 0.44216648 -0.26493233
000060 e3 2e 92 bf 3f 69 4f be 2b 36 96 3f 86 ec 5e 3d
       -1.1420559 -0.20254992 1.1735281 0.054424785
000070 c1 3b 8c bf d9 44 a8 bf 73 8b cb bf 1d 07 34 be
       -1.0955735 -1.3146011 -1.5901932 -0.17580839
000080 b0 4b 89 bf eb a5 8d bf 9c 40 14 3f 59 a2 ca 3f
       -1.0726223 -1.1066259 0.57911086 1.5830795
000090 4d bc 8c bf e8 1d a8 3f be cb 89 bf 28 72 e4 3e
       -1.0994965 1.3134127 -1.0765302 0.44618344
0000a0 2f 0e ac be 53 39 bc bf 5a 84 a9 be eb 7e bf 3f
       -0.3360457 -1.4704994 -0.3310879 1.4960607
0000b0 8e 9d da bf ff 49 8d 3f 69 36 9c 3e 87 2a 9d 3e
       -1.7079332 1.1038207 0.30510262 0.30696508
0000c0 e9 d3 af 3e 21 93 90 3f 88 c0 89 bf 0b c5 15 3e
       0.34341362 1.12949 -1.0761881 0.14625947
0000d0 b9 88 8b 3f 04 91 e6 3e 1d 7f 83 bf 0b 2f 8c 3e
       1.09011 0.45032513 -1.0273167 0.2737964
0000e0 db ca a7 bf 36 a4 39 be 01 80 49 3f 10 ab b5 3f
       -1.3108782 -0.18129048 0.78710943 1.4192829
0000f0 67 dc 8d bf 6a 7d c7 3f 56 07 8d 3f 3f 81 89 3f
       -1.1082886 1.5585148 1.1017864 1.0742568
000100 fc 91 3d 3e 89 4f c8 3f 67 38 c1 3f 83 fb 67 bf
       0.1851272 1.5649272 1.5095338 -0.9061815
000110 15 6b 92 bf d7 4d 90 3f b9 8a 89 3f 18 54 23 3f
       -1.1438929 1.1273755 1.074546 0.6380019
000120 ce 5e 9d 3f 2f e5 ba 3e 4c 1c 89 bf bd 69 ad 3c
       1.2294557 0.36502978 -1.071176 0.021168584
000130 3f 43 a4 3f d9 81 46 3f cc 46 03 3d 64 1c c6 bd
       1.2833022 0.7754188 0.03204994 -0.09673384
000140 b0 f5 aa 3f 69 9a 27 3f 83 9e 82 3f da e6 15 3e
       1.3356228 0.65469986 1.0204624 0.14638844
000150 02 19 56 bf e8 48 b4 3e 6d 47 8f bf 2f 44 9d bf
       -0.8363191 0.35211873 -1.1193672 -1.2286433
000160 86 07 df bd 0b 12 55 3f 98 ec d8 3f 60 95 95 3f
       -0.10890107 0.83230656 1.6947203 1.1686211
000170 9e 4e 2a 3e 58 9f b5 3f 06 7c 0c 3f 71 96 8a 3f
       0.16631553 1.4189253 0.54876745 1.0827161
000180 02 88 f1 be f2 57 d1 bf ec d3 4e bf 30 4d 0b 3f
       -0.47174078 -1.6354964 -0.8079212 0.54414654
000190 f7 4c 84 be 5c ef 1e bd 92 dc b4 be df 54 21 be
       -0.2583997 -0.03880249 -0.35324532 -0.15755032
0001a0 3b 1c 6b 3e 4e ae 06 bf 90 64 ec 3d 86 07 3b 3e
       0.22959988 -0.5260972 0.11542618 0.18264589
0001b0 97 fc bf bd 73 46 67 be 5b 44 b2 3e a0 2c 4d bf
       -0.093743496 -0.22585468 0.34817776 -0.8014622
0001c0 e5 97 01 bf 3f 13 34 3d 34 77 e4 3e 1a 42 85 be
       -0.506224 0.043963667 0.44622195 -0.26026994
0001d0 43 47 3d 3f a9 79 db 3d ff 07 93 3b c7 62 bf 3d
       0.7393686 0.10716564 0.004487037 0.09345012
0001e0 d3 0c 56 be 7a 12 6b 3e 96 88 b8 3e f5 54 f5 3e
       -0.2090333 0.22956267 0.36041707 0.4791638
0001f0 70 2e 9e 3d 93 f0 94 3e a0 e1 64 3d be 58 17 3f
       0.07723701 0.29089794 0.055879235 0.59119785
000200 de cd 05 3e d7 42 a1 3d fe d3 48 be c5 f9 51 be
       0.13066813 0.07874077 -0.19612119 -0.20505436
000210 a0 75 84 3e 38 d8 fa 3c c8 d6 e0 3e 1a f8 87 3e
       0.2587099 0.03062068 0.43913865 0.26556474
000220 e2 31 21 be 40 f7 ba 3c 7a 48 d7 3d 9f fa b3 3e
       -0.15741685 0.022822976 0.10511871 0.35152146
000230 34 3b 2a be 29 96 ab 3d 0e a9 df 3e 9d 06 ef 3b
       -0.16624147 0.0837825 0.43683666 0.0072944895
000240 20 52 72 be 10 b4 f3 3b 17 49 4c bf 71 d5 87 be
       -0.2366414 0.0074372366 -0.79799026 -0.2653003
000250 03 ab 00 bf df 99 e3 be f4 90 a4 bc b7 1a b0 be
       -0.50260943 -0.44453332 -0.02008865 -0.34395382
000260 16 52 d8 3d 02 32 1d 3e 81 21 84 3e 85 03 4c 3e
       0.10562532 0.15351108 0.2580681 0.19923218
000270 74 cd 96 be 4a ae dd 3e 04 77 28 3e ac 67 b5 3d
       -0.29453623 0.43297035 0.16451651 0.088576645
000280 1d 60 36 3e 65 c9 a0 3e cd 82 b8 be c4 17 84 bd
       0.17810102 0.31403652 -0.36037293 -0.064498454
000290 fc dc 5b 3e 04 f4 a8 39 d3 ea 94 3d 6d 5d 1b be
       0.21471018 0.00032225263 0.07271352 -0.15172358
0002a0 35 a2 51 bd 25 72 c0 be 23 5b 7a be e0 f2 f0 3e
       -0.051180083 -0.37587085 -0.24448828 0.470603
0002b0 f5 55 52 be 1f b1 6c 3e 54 04 57 bd ce d5 79 be
       -0.20540603 0.23114441 -0.052494362 -0.24397966
0002c0 e0 6f 83 3d d7 c8 3e 3e 57 cd d2 be 44 60 e5 3e
       0.06417823 0.18631302 -0.41172287 0.44800007
0002d0 9c 06 01 be 16 8c a8 3e 40 8a 07 bf 34 04 9b be
       -0.12600178 0.32919377 -0.5294533 -0.30276644
0002e0 88 a9 92 be 27 16 4d 3e 7f e7 a8 3d 88 86 9b 3d
       -0.28644967 0.20027982 0.082472794 0.07594019
0002f0 c5 cc ca 3e af aa 81 3e 7f 9f 00 3d 36 d1 e7 3d
       0.39609352 0.25325534 0.031402107 0.11319201
000300 7a b7 d5 be 41 4f 3c 3d e5 26 82 3e ec 7f f5 bd
       -0.41741544 0.04597402 0.254203 -0.1198729
000310 36 d1 b9 be e8 8b 99 bd a4 9b be be a2 7d 97 3d
       -0.36292428 -0.07497388 -0.3722812 0.073970094
000320 63 d9 7a be 67 30 1c be 54 86 c7 3e 49 dc b3 be
       -0.24496989 -0.15252839 0.38969672 -0.35129002
000330 70 a1 db 3e c4 a5 fa be 9c e4 d2 be 0c a5 02 3f
       0.42896605 -0.48954594 -0.4119004 0.5103309
000340 10 c6 4f be a3 e1 b8 3e ee 7c e0 3e e9 8b ff be
       -0.20290399 0.36109647 0.43845314 -0.4991143
000350 6c f6 5a be 87 0c b3 3d 3a 51 fe 3e e5 37 0f 3e
       -0.21383065 0.08742624 0.49671346 0.13986166
000360 f8 0e 94 be 53 ea 3b be e5 bc 9a 3e 49 23 24 3f
       -0.2891767 -0.18351106 0.3022224 0.6411634
000370 c3 7a 1e bf d9 d6 08 3f f5 f0 d3 3e 56 8e c9 3e
       -0.6190607 0.5345283 0.41394773 0.39366406
000380 cc 36 b6 be 82 c4 f4 3e e0 1c 82 3e bb eb 2d 3f
       -0.35588682 0.47806174 0.25412655 0.6793782
000390 37 5b 63 be 4e df a2 be a1 fb d1 be d9 49 07 bf
       -0.22202764 -0.31810993 -0.4101229 -0.5284706
0003a0 c8 fd 15 be cb ab 39 3d 28 61 0b 3f 37 7d 76 3e
       -0.14647591 0.04532985 0.54445124 0.24071203
0003b0 e9 0c d9 be 8a 4e f3 3d a6 be 37 bc 4f df 81 3e
       -0.42392662 0.118802145 -0.011214888 0.25365683
0003c0 d3 0c c3 be ac 84 d7 be 18 0c 07 3f 41 0c 92 3e
       -0.38095722 -0.42093408 0.5275283 0.28524974
0003d0 30 33 dc be d1 e8 72 3d 3e 0e 5e be 1d f1 8f be
       -0.43007803 0.059304062 -0.2168512 -0.28113642
0003e0 d5 5f 06 bf 59 49 63 3e 47 6c 83 be d6 d0 e6 be
       -0.5248998 0.22195949 -0.25668547 -0.45081204
0003f0 a4 eb 13 3f 24 92 11 3f 83 1d 96 be 5c 4f 52 3e
       0.57781434 0.5686362 -0.2931939 0.20538086

sequential_19/dense_39/MatMul f4 [1, 24]
000000 41 5a 36 c0 00 5d 46 3e ef 88 33 bf f3 c3 a9 be
       -2.8492587 0.19371414 -0.7013082 -0.3315731
000010 49 54 ca 3d 8b 5a 96 3e 31 c3 c6 bd 45 13 6a be
       0.09879357 0.29365954 -0.097051986 -0.22858913
000020 96 35 96 3d 62 d5 22 40 3b ba a7 3d ca db f2 be
       0.073344395 2.5442739 0.081898175 -0.4743331
000030 4c 78 c3 3e 0b 1a b6 be 23 73 0c 3d a5 d0 6e 3d
       0.38177717 -0.35566744 0.03428949 0.058304448
000040 94 67 bb 3e 42 12 2f 3f 72 24 b2 3e 91 13 12 bf
       0.3660246 0.68387234 0.3479343 -0.57061106
000050 07 b3 24 3f 8e 05 f6 be 91 24 b0 bd 60 cb 1c 3f
       0.64335674 -0.48051113 -0.086007245 0.61247826
